transformer_model_v2.pth (torch, 306220 bytes, 28 tensors)

input_projection.weight f4 [64, 7]
0	0xbeba32a9	-0.36366776
1	0xbe4c519c	-0.19953007
2	0xbdf76cee	-0.120813236
3	0xbe240b92	-0.16020039
4	0xbe981948	-0.29706788
5	0xbe6cfb13	-0.23142652
6	0x3e62b807	0.22140513
7	0x3ec9d266	0.39418334
8	0xbda97ff7	-0.082763605
9	0xbe9b5e72	-0.30345494
10	0xbe4013a7	-0.18757497
11	0x3e150082	0.14550975
12	0x3eb58e90	0.3546033
13	0xbc95d4a4	-0.018289872
14	0xbe045546	-0.12923154
15	0x3decae83	0.11556723
16	0xbe97182b	-0.29510626
17	0x3e749ef0	0.23888755
18	0x3eadea3d	0.33967772
19	0x3e06ce76	0.13164696
20	0xbda91551	-0.08256019
21	0xbe7464c8	-0.2386657
22	0x3e38cdd7	0.18047272
23	0xbe997f1a	-0.29979783
24	0x3cc762ad	0.024339044
25	0x3e40d087	0.18829547
26	0x3e9df210	0.30848742
27	0xbea00ecf	-0.31261298
28	0xbe9610e2	-0.29309756
29	0x3e8e9468	0.278476
30	0x3e11a5cc	0.14223403
31	0xbebf7bdd	-0.37399188
32	0xbec30d94	-0.38096297
33	0x3e762081	0.24035837
34	0x3e78c9d3	0.2429574
35	0x3e73bb67	0.23801957
36	0x3d9b6234	0.0758709
37	0x3db892a7	0.09012347
38	0x3e8c4fab	0.27404532
39	0x3ea5ad9d	0.3235902
40	0x3e2f71f1	0.17133309
41	0x3e8cf790	0.27532625
42	0x3cf93252	0.030419502
43	0x3e364206	0.17798623
44	0xbe15a51e	-0.14613768
45	0x3ccba482	0.024858717
46	0x3e7e9771	0.24862458
47	0x3e5570e0	0.2084384
48	0xbe894e54	-0.26817572
49	0x3ec90914	0.3926474
50	0xbc392d24	-0.011302266
51	0x3d1da4c3	0.038487207
52	0x3e5cf303	0.21577077
53	0x3e5bd366	0.21467361
54	0xbe7b2b33	-0.24528198
55	0x3eb81a39	0.35957506
56	0xbed85965	-0.42255703
57	0xbdc18839	-0.094498105
58	0x3e94e4a4	0.2908069
59	0xbe091b29	-0.13389267
60	0xbeb54321	-0.35402778
61	0xbe419fa1	-0.1890855
62	0x3de95462	0.11393048
63	0xbe39d254	-0.1814664
64	0x3d70cb9b	0.058787923
65	0xbd74f7af	-0.059806522
66	0x3e8f148f	0.27945372
67	0x3d88fdc3	0.06689026
68	0x3d8eb512	0.0696813
69	0x3e3be7a1	0.18350078
70	0xbc091d67	-0.0083688265
71	0x3dcbba50	0.09947646
72	0xbeb7a966	-0.35871428
73	0x3ec00641	0.3750477
74	0x3e313fdc	0.17309517
75	0xbe06098c	-0.1308958
76	0xbc380155	-0.011230786
77	0xbedb1124	-0.42786515
78	0xbe56673f	-0.20937823
79	0xbc5c2d37	-0.013438514
80	0x3e699d03	0.22813801
81	0xbe19547e	-0.14973637
82	0x3dcf6259	0.1012618
83	0xbe5c3b47	-0.21506988
84	0x3d34ad66	0.044110678
85	0xbe520b4a	-0.20512119
86	0xbe403efa	-0.18774024
87	0xbd21f9e5	-0.03954496
88	0x3eb5c876	0.35504502
89	0xbd8af418	-0.067848384
90	0xbeb41be7	-0.35177538
91	0x3e839e69	0.25706795
92	0xbe46a36c	-0.19398278
93	0xbe27519e	-0.16339728
94	0x3e92aa82	0.28645712
95	0xbda02cbf	-0.07821035
96	0xbe0399b4	-0.12851602
97	0xbe37e8f9	-0.17959966
98	0xbea2c372	-0.31789738
99	0x3e95636e	0.2917742
100	0xbedba5df	-0.42899987
101	0x3ea65149	0.3248389
102	0x3c45ada2	0.012065323
103	0xbd83c46c	-0.06433949
104	0xbe4c9cb1	-0.19981648
105	0xbe5e51ac	-0.21710843
106	0x3e3260e2	0.1741977
107	0x3e736405	0.23768623
108	0x3e352927	0.1769148
109	0x3ce16a85	0.027516613
110	0x3e5e13d1	0.21687247
111	0xbe47bfa5	-0.195067
112	0x3ed53277	0.41640064
113	0x3ea26777	0.31719562
114	0xbe27c316	-0.16383013
115	0x3d1cd671	0.038290445
116	0xbe12ed0a	-0.14348236
117	0x3de9dffe	0.11419676
118	0xbd17c764	-0.037055388
119	0xbe7a74d8	-0.24458635
120	0x3e5de633	0.21669845
121	0xbea1645b	-0.31521878
122	0xbeac2d18	-0.33628154
123	0x3e8bccef	0.2730479
124	0xbe428086	-0.1899434
125	0x3e0e2b48	0.13883698
126	0xbeb1ae6b	-0.34703383
127	0xbe8743f6	-0.26419038
128	0x3ec0265f	0.37529275
129	0xbeab9f46	-0.33519953
130	0x3db84318	0.08997172
131	0x3eb952fd	0.36196128
132	0x3eb1ba24	0.34712327
133	0x3de636a1	0.112408884
134	0x3e7baee7	0.24578439
135	0x3e98693c	0.29767787
136	0xbd6b108b	-0.057388823
137	0x3e1250e5	0.14288671
138	0xbea870da	-0.328986
139	0x3e24826c	0.16065377
140	0xbd79d21f	-0.060991403
141	0xbd09b639	-0.033621047
142	0xbea2d4c0	-0.3180294
143	0xbdcd9103	-0.100374244
144	0x3da0ad3f	0.07845544
145	0x3e82da17	0.25557014
146	0xbe35de38	-0.17760551
147	0x3e872df4	0.26402247
148	0xbe2c13e4	-0.16804463
149	0xbeb1d860	-0.34735394
150	0xbeb3f55c	-0.35148132
151	0xbe87a020	-0.26489353
152	0xbe4f28fe	-0.20230481
153	0x3ce4d717	0.027934594
154	0x3e2dde7b	0.16979401
155	0x3e138650	0.14406705
156	0xbd3935d6	-0.045217358
157	0x3ec7965b	0.389819
158	0xbec324b7	-0.3811395
159	0xbe34c7e5	-0.17654379
160	0x3d6d31fd	0.057909
161	0x3e5518ef	0.20810293
162	0x3e3271e7	0.17426263
163	0x3cd73eb2	0.026275013
164	0x3e55ce2a	0.20879427
165	0x3e189ada	0.14902821
166	0xbe623601	-0.22090913
167	0xbd97715b	-0.07394668
168	0x3ec8df9e	0.39233106
169	0x3eb201f1	0.34767106
170	0x3e88f491	0.2674909
171	0x3e9711d5	0.29505792
172	0x3ec4539a	0.38345033
173	0x3e9cc363	0.30617818
174	0x3e07b341	0.13251974
175	0x3e5ac3fe	0.21363828
176	0x3e4318c0	0.1905241
177	0xbeaf3fbd	-0.34228316
178	0x3da8a9d6	0.08235519
179	0xbc8fab45	-0.017537722
180	0xbe8e91aa	-0.27845508
181	0x3e930f61	0.2872267
182	0xbddbcbde	-0.10732244
183	0x3eb96678	0.3621099
184	0xbe8321af	-0.25611636
185	0x3e42ad6e	0.1901147
186	0x3de64f33	0.11245575
187	0x3e55688d	0.20840664
188	0xbc41df64	-0.011833046
189	0xbec21d71	-0.37913087
190	0x3eb984ba	0.36234075
191	0xbda9025f	-0.082524054
192	0x3d480d4f	0.048840817
193	0x3d95c935	0.07313768
194	0x3ea79e2e	0.3273787
195	0x3e8c0b8a	0.27352554
196	0xbeb4bbe6	-0.35299605
197	0x3d0d55b9	0.03450558
198	0x3e5fac49	0.21843065
199	0x39f51b1d	0.00046750242
200	0x3ebe6efb	0.37194046
201	0xbe81c7b0	-0.25347662
202	0xbeaec77d	-0.34136572
203	0x3ec9ccc1	0.39414027
204	0xbe7fe72b	-0.24990527
205	0xbe02ff29	-0.12792648
206	0xbdab56cc	-0.083661646
207	0x3eaec488	0.34134316
208	0xbe893e0d	-0.26805153
209	0x3ea73a5b	0.3266171
210	0x3da61344	0.081091434
211	0xbd4fe556	-0.05075582
212	0xbe883e8a	-0.26610214
213	0xbe48ba48	-0.1960231
214	0xbd65fb4a	-0.05614785
215	0xbe85ffa1	-0.26171592
216	0x3dd0cb49	0.101950236
217	0x3eb3a5ac	0.35087335
218	0x3eac54b0	0.3365836
219	0xbeac045e	-0.33597082
220	0xbe3fb49b	-0.1872124
221	0xbe40c139	-0.18823709
222	0x3e953ed1	0.29149488
223	0xbeadcd8b	-0.3394588
224	0xbe7cf941	-0.24704458
225	0x3ebce779	0.3689535
226	0x3dce55f4	0.10074988
227	0xbea435f6	-0.3207242
228	0xbd4145c0	-0.04718566
229	0x3d226ccd	0.03965454
230	0xbe96bfba	-0.2944315
231	0xbece3f5a	-0.40282708
232	0x3e97b536	0.2963044
233	0x3ec62ccf	0.3870606
234	0x3d79102c	0.06080644
235	0xbc2bad80	-0.010478377
236	0xbe231e60	-0.15929556
237	0x3ecfdf77	0.40600178
238	0x3ea2e0f2	0.31812245
239	0xbe1c8fc7	-0.15289222
240	0xbbaf86a3	-0.005356626
241	0x3e898972	0.26862675
242	0x3dea6775	0.11445514
243	0xbec25de7	-0.37962267
244	0xbc43ead0	-0.011957839
245	0xbec11956	-0.37714642
246	0xbe58b4de	-0.21162745
247	0x3e02b347	0.12763701
248	0x3d8534ca	0.06504209
249	0x3e7fefbb	0.24993794
250	0xbea4aa7d	-0.32161322
251	0x3ddac471	0.106819995
252	0x3d916356	0.07099025
253	0xbe81bcf0	-0.2533946
254	0x3eb03b25	0.34420124
255	0xbe3b3496	-0.18281779

input_projection.bias f4 [64]
0	0x3d8d6704	0.06904414
1	0xbea87133	-0.32898864
2	0x3c14e1a8	0.009087004
3	0xbe8b619d	-0.2722291
4	0xbea1aad5	-0.31575647
5	0xbd2e39dc	-0.042535648
6	0x3e96a290	0.294209
7	0x3db61989	0.08891589
8	0xbe316835	-0.17324908
9	0x3d9e9294	0.07742801
10	0x3e8efee2	0.27928835
11	0x3e609c6a	0.21934667
12	0x3dffcbdf	0.12490057
13	0xbe3ed5e1	-0.18636276
14	0x3e8421e5	0.2580711
15	0x3e349097	0.17633282
16	0xbbf3d489	-0.0074411076
17	0x3e00dc81	0.12584116
18	0x3e028347	0.12745391
19	0x3e9630c1	0.2933407
20	0xbddb003d	-0.10693405
21	0x3dc9945f	0.09842753
22	0x3e208545	0.15675838
23	0x3dc811b7	0.09769004
24	0x3e642c81	0.22282602
25	0xbe842856	-0.25812024
26	0xbeb7e307	-0.35915396
27	0xbd9613d2	-0.07327999
28	0xbeafa186	-0.3430292
29	0x3dce11a8	0.100619614
30	0xbdf91f8d	-0.12164221
31	0x3e263666	0.16231689
32	0xbdb41727	-0.087934785
33	0xbe9f7644	-0.31144917
34	0xbc881dcc	-0.01661577
35	0xbd8124be	-0.06305836
36	0xbdddb799	-0.10826034
37	0xbea70785	-0.32622924
38	0xbeaf46be	-0.3423366
39	0x3e34f13b	0.17670147
40	0xbe97c6e3	-0.29643926
41	0x3e4af7a2	0.19821027
42	0x3d37ba5d	0.044855464
43	0x3d9b5299	0.07584114
44	0xbb1367f6	-0.0022492385
45	0xbd62c285	-0.05536129
46	0xbea9ebf4	-0.3318783
47	0x3d0fdd47	0.035123136
48	0xbd8b5c44	-0.06804708
49	0xbe51c341	-0.2048464
50	0x3e977665	0.29582515
51	0xbed422cb	-0.41432795
52	0x3e5ccc8a	0.215624
53	0x3dc22110	0.094789624
54	0x3cc9dd9b	0.024641803
55	0x3e594e7e	0.21221349
56	0x3eaa688e	0.33282894
57	0xbdc56e6b	-0.09640201
58	0x3e99697f	0.299633
59	0x3e50ac58	0.20378244
60	0x3e0c386a	0.13693395
61	0x3af080d7	0.0018348944
62	0x3e6d525f	0.23175953
63	0xbe6a366e	-0.22872326

pos_encoder.pe f4 [1, 96, 64]
0	0x00000000	0.0
1	0x3f800000	1.0
2	0x00000000	0.0
3	0x3f800000	1.0
4	0x00000000	0.0
5	0x3f800000	1.0
6	0x00000000	0.0
7	0x3f800000	1.0
8	0x00000000	0.0
9	0x3f800000	1.0
10	0x00000000	0.0
11	0x3f800000	1.0
12	0x00000000	0.0
13	0x3f800000	1.0
14	0x00000000	0.0
15	0x3f800000	1.0
16	0x00000000	0.0
17	0x3f800000	1.0
18	0x00000000	0.0
19	0x3f800000	1.0
20	0x00000000	0.0
21	0x3f800000	1.0
22	0x00000000	0.0
23	0x3f800000	1.0
24	0x00000000	0.0
25	0x3f800000	1.0
26	0x00000000	0.0
27	0x3f800000	1.0
28	0x00000000	0.0
29	0x3f800000	1.0
30	0x00000000	0.0
31	0x3f800000	1.0
32	0x00000000	0.0
33	0x3f800000	1.0
34	0x00000000	0.0
35	0x3f800000	1.0
36	0x00000000	0.0
37	0x3f800000	1.0
38	0x00000000	0.0
39	0x3f800000	1.0
40	0x00000000	0.0
41	0x3f800000	1.0
42	0x00000000	0.0
43	0x3f800000	1.0
44	0x00000000	0.0
45	0x3f800000	1.0
46	0x00000000	0.0
47	0x3f800000	1.0
48	0x00000000	0.0
49	0x3f800000	1.0
50	0x00000000	0.0
51	0x3f800000	1.0
52	0x00000000	0.0
53	0x3f800000	1.0
54	0x00000000	0.0
55	0x3f800000	1.0
56	0x00000000	0.0
57	0x3f800000	1.0
58	0x00000000	0.0
59	0x3f800000	1.0
60	0x00000000	0.0
61	0x3f800000	1.0
62	0x00000000	0.0
63	0x3f800000	1.0
64	0x3f576aa4	0.84147096
65	0x3f0a5141	0.54030234
66	0x3f2e7ace	0.68156135
67	0x3f3b54b0	0.731761
68	0x3f087dba	0.53316844
69	0x3f58940d	0.8460091
70	0x3ed190f0	0.4093089
71	0x3f6992c7	0.9123959
72	0x3e9f393e	0.3109836
73	0x3f734e6b	0.9504153
74	0x3e708f25	0.23492105
75	0x3f78d5f1	0.9720145
76	0x3e35233a	0.17689219
77	0x3f7bf683	0.9842302
78	0x3e0825f3	0.13295726
79	0x3f7dba28	0.99112177
80	0x3dcc7576	0.099833414
81	0x3f7eb898	0.9950042
82	0x3d996f36	0.07491915
83	0x3f7f47d1	0.9971896
84	0x3d6636ae	0.05620449
85	0x3f7f9868	0.9984193
86	0x3d2cacfb	0.042157155
87	0x3f7fc5bd	0.999111
88	0x3d01815b	0.031617504
89	0x3f7fdf3c	0.99950004
90	0x3cc23ea5	0.023711512
91	0x3f7fed93	0.99971884
92	0x3c91ab42	0.017781857
93	0x3f7ff5a3	0.99984187
94	0x3c5a7a49	0.013334819
95	0x3f7ffa2c	0.99991107
96	0x3c23d657	0.009999833
97	0x3f7ffcb9	0.99995
98	0x3bf5b916	0.0074988706
99	0x3f7ffe28	0.99997187
100	0x3bb8445a	0.0056233825
101	0x3f7ffef7	0.9999842
102	0x3b8a2e5a	0.0042169513
103	0x3f7fff6b	0.9999911
104	0x3b4f3e1c	0.0031622713
105	0x3f7fffac	0.999995
106	0x3b1b6903	0.0023713715
107	0x3f7fffd1	0.9999972
108	0x3ae91520	0.0017782785
109	0x3f7fffe6	0.99999845
110	0x3aaec98b	0.0013335211
111	0x3f7ffff1	0.9999991
112	0x3a83126d	0.0009999998
113	0x3f7ffff8	0.9999995
114	0x3a449489	0.000749894
115	0x3f7ffffb	0.9999997
116	0x3a136a13	0.0005623411
117	0x3f7ffffd	0.9999998
118	0x39dd1721	0.00042169637
119	0x3f7fffff	0.99999994
120	0x39a5cb61	0.00031622782
121	0x3f7fffff	0.99999994
122	0x3978a80d	0.00023713727
123	0x3f800000	1.0
124	0x393a7753	0.00017782794
125	0x3f800000	1.0
126	0x390bd46d	0.00013335208
127	0x3f800000	1.0
128	0x3f68c7b7	0.9092974
129	0xbed51133	-0.41614684
130	0x3f7f5ad9	0.99748
131	0x3d914d53	0.070948265
132	0x3f66f20a	0.9021307
133	0x3edce8b2	0.43146282
134	0x3f3f3511	0.7469035
135	0x3f2a3903	0.6649324
136	0x3f17541b	0.5911271
137	0x3f4e7bec	0.8065784
138	0x3ee9d3b5	0.45669332
139	0x3f63be69	0.8896242
140	0x3eb247f6	0.34820527
141	0x3f6ffaa6	0.93741834
142	0x3e86f082	0.26355368
143	0x3f76f2f5	0.96464473
144	0x3e4b6ff8	0.19866931
145	0x3f7ae5a5	0.9800666
146	0x3e1900d3	0.1494172
147	0x3f7d204f	0.98877424
148	0x3de5d986	0.1122313
149	0x3f7e61f3	0.9936821
150	0x3dac85af	0.084239356
151	0x3f7f170e	0.99644554
152	0x3d8170c8	0.063203394
153	0x3f7f7cf9	0.9980007
154	0x3d4230aa	0.04740969
155	0x3f7fb64e	0.9988755
156	0x3d11a55c	0.03555809
157	0x3f7fd68e	0.9993676
158	0x3cda7550	0.026667267
159	0x3f7fe8b1	0.99964434
160	0x3ca3d43e	0.019998666
161	0x3f7ff2e5	0.9998
162	0x3c75b751	0.014997319
163	0x3f7ff8a1	0.9998875
164	0x3c38439b	0.011246587
165	0x3f7ffbdb	0.99993676
166	0x3c0a2e0a	0.008433828
167	0x3f7ffdab	0.9999644
168	0x3bcf3dd8	0.006324511
169	0x3f7ffeb1	0.99998003
170	0x3b9b68e7	0.00474273
171	0x3f7fff43	0.99998873
172	0x3b691508	0.0035565514
173	0x3f7fff96	0.9999937
174	0x3b2ec980	0.0026670396
175	0x3f7fffc4	0.9999964
176	0x3b031268	0.0019999985
177	0x3f7fffdf	0.99999803
178	0x3ac49485	0.0014997876
179	0x3f7fffed	0.99999887
180	0x3a936a12	0.0011246821
181	0x3f7ffff5	0.99999934
182	0x3a5d171f	0.0008433926
183	0x3f7ffffa	0.99999964
184	0x3a25cb60	0.0006324556
185	0x3f7ffffd	0.9999998
186	0x39f8a80c	0.0004742745
187	0x3f7ffffe	0.9999999
188	0x39ba7753	0.00035565588
189	0x3f7fffff	0.99999994
190	0x398bd46d	0.00026670416
191	0x3f800000	1.0
192	0x3e1081c3	0.14112
193	0xbf7d7026	-0.9899925
194	0x3f473cde	0.7782725
195	0xbf20bfce	-0.6279267
196	0x3f7e45d7	0.9932532
197	0xbded7fab	-0.11596616
198	0x3f742163	0.95363444
199	0x3e9a1863	0.3009673
200	0x3f5009c2	0.8126489
201	0x3f152f58	0.58275366
202	0x3f2724b7	0.652904
203	0x3f41e7a2	0.7574407
204	0x3f022f6c	0.5085361
205	0x3f5c6d29	0.86104065
206	0x3ec768a7	0.3894703
207	0x3f6bc937	0.92103904
208	0x3e974e6c	0.2955202
209	0x3f7490ef	0.9553365
210	0x3e646de2	0.22307542
211	0x3f798c92	0.9748012
212	0x3e2beed7	0.16790329
213	0x3f7c5d9e	0.9858035
214	0x3e01332c	0.12617177
215	0x3f7df443	0.9920084
216	0x3dc1ffc0	0.094726086
217	0x3f7ed94f	0.99550337
218	0x3d919306	0.071081206
219	0x3f7f5a3a	0.9974705
220	0x3d5a694e	0.053323083
221	0x3f7fa2c3	0.9985773
222	0x3d23d1c5	0.039994974
223	0x3f7fcb90	0.99919987
224	0x3cf5b91f	0.0299955
225	0x3f7fe283	0.99955004
226	0x3cb84747	0.022494925
227	0x3f7fef6b	0.999747
228	0x3c8a31c6	0.016869437
229	0x3f7ff6ad	0.9998577
230	0x3c4f4446	0.012650555
231	0x3f7ffac1	0.99991995
232	0x3c1b6e0d	0.009486687
233	0x3f7ffd0d	0.999955
234	0x3be91d13	0.0071140616
235	0x3f7ffe58	0.9999747
236	0x3baecfa8	0.005334813
237	0x3f7fff11	0.99998575
238	0x3b831713	0.0040005534
239	0x3f7fff7a	0.999992
240	0x3b449b92	0.0029999954
241	0x3f7fffb5	0.9999955
242	0x3b136f60	0.0022496805
243	0x3f7fffd6	0.9999975
244	0x3add1f17	0.0016870227
245	0x3f7fffe8	0.99999857
246	0x3aa5d156	0.0012650888
247	0x3f7ffff3	0.9999992
248	0x3a78b110	0.00094868336
249	0x3f7ffff9	0.9999996
250	0x3a3a7e09	0.00071141176
251	0x3f7ffffc	0.99999976
252	0x3a0bd97e	0.0005334838
253	0x3f7ffffe	0.9999999
254	0x39d1bea4	0.00040005625
255	0x3f7fffff	0.99999994

transformer_encoder.layers.0.self_attn.in_proj_weight f4 [192, 64]
0	0x3df87c87	0.12133127
1	0xbe08956a	-0.13338247
2	0xbd4d376c	-0.050101683
3	0xbdb79930	-0.08964765
4	0xbc9b4c0b	-0.018957159
5	0x3e557d29	0.20848526
6	0xbd06bbd5	-0.032893974
7	0x3e3db829	0.18527283
8	0xbd0db5c5	-0.034597177
9	0xbdcedf50	-0.10101187
10	0xbcd0eca6	-0.025503468
11	0x3dd02a14	0.10164276
12	0xbe933f5c	-0.28759277
13	0xbe9a4908	-0.30133843
14	0x3e1204e0	0.14259672
15	0x3e21a6ec	0.15786332
16	0xbd8efd36	-0.0698189
17	0xbac0777b	-0.0014684045
18	0x3edf1bb8	0.43575835
19	0x3da829f9	0.08211131
20	0x3b80c116	0.0039292676
21	0x3c7c4f3f	0.015399753
22	0xbe4f8e2b	-0.20269077
23	0x3e9251fe	0.2857818
24	0xbbce42b2	-0.006294572
25	0x3e0ba65a	0.13637677
26	0x3db3688d	0.08760176
27	0x3e9278d1	0.286078
28	0x3c6d78f6	0.014494171
29	0x3c700290	0.014649048
30	0xbe452727	-0.19253217
31	0xbd10d02e	-0.035354786
32	0x3d2afc0f	0.041744288
33	0x3ea04d7f	0.31309125
34	0xbd4f8e19	-0.050672624
35	0x3e83bd9d	0.257306
36	0xbd9383d0	-0.072028756
37	0xbbcb254d	-0.006199515
38	0xbcec842f	-0.028871624
39	0xbd2cc7a0	-0.042182565
40	0x3d53d596	0.051717363
41	0xbcb58ecc	-0.022162817
42	0xbdef02f8	-0.11670488
43	0x3e0a4c58	0.13505685
44	0x3df8b9fa	0.12144847
45	0xbd59ef8e	-0.053206973
46	0x3e00bd7e	0.12572286
47	0x3d3842c5	0.04498555
48	0xbd1fc7a3	-0.039008748
49	0x3e64633c	0.2230348
50	0xbd3bac13	-0.0458184
51	0x3e3f7345	0.18696316
52	0xbcb54c46	-0.022131097
53	0x3df53425	0.119728364
54	0xbd279eb2	-0.040922828
55	0x3e5b350d	0.21406956
56	0x3e2daa97	0.16959606
57	0x3d9689d9	0.07350511
58	0x3de2a218	0.11066073
59	0x3d908cbf	0.07058095
60	0xbd59e816	-0.05319985
61	0xbbce0f5b	-0.0062884516
62	0x3d083094	0.033249453
63	0x3b7ba12a	0.0038395622
64	0xbd744511	-0.05963618
65	0x3bc996ce	0.0061520105
66	0x3dde2b3f	0.10848092
67	0xbdbb01b6	-0.09131186
68	0x3e0371d1	0.12836386
69	0xbcb58728	-0.022159174
70	0x3d3b794c	0.045769975
71	0xbe2b278f	-0.16714309
72	0xbe027601	-0.12740327
73	0x3e16dacb	0.147319
74	0xbcf3d881	-0.029766323
75	0x3ddbdd46	0.10735564
76	0x3e5e872c	0.21731251
77	0x3e1c8851	0.15286376
78	0xbe079ae4	-0.1324268
79	0x3c30bdbe	0.010787426
80	0xbdaa194b	-0.083056055
81	0xbcb7f647	-0.022456301
82	0xbe980a13	-0.29695186
83	0xbea514c1	-0.32242396
84	0x3d9b344b	0.075783335
85	0xbeb7f0be	-0.3592586
86	0x3e007c85	0.125475
87	0xbe8a28ee	-0.26984352
88	0x3d560d97	0.052259054
89	0xbcc92a2f	-0.024556248
90	0x3e258250	0.16162992
91	0xbdc6655d	-0.09687302
92	0x3e17e4ef	0.14833425
93	0x3d06678c	0.032813594
94	0xbd3d8ea0	-0.046278596
95	0xbd649fe7	-0.055816557
96	0x3e1ef246	0.15522107
97	0xbceaaf5d	-0.028648073
98	0x3d192b49	0.037394796
99	0xbe24fe98	-0.16112745
100	0xbd379dc0	-0.044828176
101	0x3d9a9a29	0.07548935
102	0x3de62551	0.11237586
103	0x3ce674a9	0.0281318
104	0x3c3879e4	0.01125953
105	0xbca3284e	-0.01991668
106	0x3ce2f242	0.027703408
107	0x3dca8448	0.09888512
108	0xbe1ab972	-0.15109804
109	0xbd3d87f6	-0.04627224
110	0x3e080904	0.13284689
111	0x3de5a9a4	0.11213997
112	0x3e309e0c	0.1724779
113	0xbdc86028	-0.09783965
114	0xbd91ff01	-0.07128716
115	0xbe01d21b	-0.12677805
116	0x3dfeccdf	0.1244142
117	0x3bc8d2ca	0.0061286436
118	0x3d0b6ab3	0.034037303
119	0xbdef3103	-0.1167927
120	0x3d81e955	0.06343333
121	0xbe0dbc43	-0.13841347
122	0xbd8d8acc	-0.06911239
123	0xbdeb2675	-0.114819445
124	0x3bfb67ee	0.0076723015
125	0x3d43a97c	0.047769055
126	0xbd3d136d	-0.046161104
127	0x3d73601d	0.059417833
128	0xbd9a2637	-0.0752682
129	0xbd4e0ad2	-0.050303288
130	0x3c5569e1	0.013025732
131	0x3ce7cddb	0.028296402
132	0xbd8931ed	-0.06698976
133	0x3e18a84f	0.14907955
134	0x3d8c0b48	0.06838089
135	0xbd17360f	-0.03691679
136	0x3b218c6b	0.0024650346
137	0xbe4cbe53	-0.19994478
138	0xbc87c9ce	-0.01657572
139	0x3ceab746	0.028651845
140	0xbe84b30d	-0.25917855
141	0xbe1066ea	-0.14101759
142	0x3d430b4a	0.047618188
143	0x3dbd469c	0.09241983
144	0x3e2eabd6	0.17057738
145	0x3d375324	0.044757023
146	0x3eae5ced	0.34055272
147	0x3e3ccf69	0.18438496
148	0x3e09db86	0.13462648
149	0x3e72e47c	0.23719972
150	0x3c126c6c	0.008936983
151	0x3eaa3e67	0.33250734
152	0x3d41bc5b	0.04729877
153	0x3db23d64	0.087031156
154	0xbe64d481	-0.22346689
155	0x3d9a8f17	0.075468235
156	0x3cac8ea9	0.02106412
157	0x3debd979	0.11516089
158	0xbddaecb6	-0.1068968
159	0x3dcf97d5	0.101363815
160	0xbd2360fb	-0.03988741
161	0x3e06709b	0.13128893
162	0xbd91b2f4	-0.07114211
163	0xbb98e87e	-0.004666387
164	0xbc8c7675	-0.017146328
165	0xbe0ea449	-0.13929857
166	0xbd838a47	-0.06422859
167	0xbc34db55	-0.011038621
168	0xbc484697	-0.012223861
169	0xbd269091	-0.040665213
170	0xbd58a31a	-0.05288992
171	0x3e25eaa4	0.1620279
172	0x3e01ffe7	0.12695275
173	0xbe2a4cbd	-0.16630836
174	0xbe15b9dd	-0.14621682
175	0xbdcd77d9	-0.10032625
176	0x3d9a6289	0.07538325
177	0x3d8d20f6	0.068910524
178	0x3cdc8a0d	0.026921296
179	0xbc8b7111	-0.017021688
180	0xbdb2e6e0	-0.08735442
181	0x3adebdb7	0.0016993795
182	0xbdb49f61	-0.088194616
183	0x3e21de80	0.15807533
184	0xbd88a630	-0.06672323
185	0x3e333819	0.17501868
186	0xbc981a56	-0.018567245
187	0x3d3734b5	0.044728
188	0x3c8496f9	0.01618527
189	0x3db9d735	0.090742506
190	0x3e346e31	0.1762016
191	0x3d300c35	0.04298039
192	0xbdcfb479	-0.10141844
193	0x3dbc28ac	0.09187445
194	0x3d4924c1	0.049107317
195	0xbcab21f0	-0.020890206
196	0xbcadbadd	-0.021207267
197	0x3cf66440	0.0300771
198	0xbd938de0	-0.07204795
199	0x3e57bb4b	0.2106754
200	0x3dcb2823	0.09919765
201	0xbda3dcc6	-0.080010936
202	0xbdf5e142	-0.12005855
203	0x3d31cd9f	0.043408986
204	0xbe7ddce3	-0.24791293
205	0xbd4dbfea	-0.05023185
206	0xbd1887a4	-0.037238732
207	0x3e1d0b5c	0.15336365
208	0x3e9fffe3	0.31249914
209	0xbc8ef861	-0.01745242
210	0x3ea0e5d9	0.3142536
211	0x3edc121d	0.4298257
212	0x3c3409c0	0.010988653
213	0x3e8a0e66	0.2696411
214	0xbda6a128	-0.08136207
215	0x3e20e084	0.15710646
216	0x3d6f3135	0.058396537
217	0x3da0941d	0.0784075
218	0xbd80e9c4	-0.06294587
219	0xbd476ce3	-0.048687827
220	0xbe492f8f	-0.19647048
221	0xbdb05dac	-0.086116165
222	0xbe6cf5f2	-0.23140696
223	0xbd094aa7	-0.03351846
224	0x3cde28ae	0.027119007
225	0x3e3978a3	0.18112426
226	0x3da2340e	0.07920085
227	0x3bb0a907	0.0053912434
228	0xbdd045d4	-0.10169569
229	0xbd51b5d4	-0.051198795
230	0xbddcb288	-0.1077624
231	0xbdd68315	-0.10474221
232	0xbe04722d	-0.1293418
233	0x3e205303	0.15656666
234	0xbe16279d	-0.14663549
235	0xbd23bde9	-0.039976034
236	0xbdae078a	-0.08497532
237	0xbe05fdd5	-0.1308511
238	0xbd4c24ab	-0.049839657
239	0x3e2b44ee	0.16725513
240	0x3b3c4664	0.002872848
241	0xbbaecd60	-0.005334541
242	0xbcff52f3	-0.031167483
243	0x3db9fad4	0.09081045
244	0x3d5efcb7	0.054440226
245	0x3de7aa9f	0.1131184
246	0xbc995151	-0.018715532
247	0x3cc7882e	0.024356928
248	0x3dab45a0	0.08362889
249	0xbc12dc53	-0.008963662
250	0xbdb1019b	-0.08642884
251	0x3da9e7ed	0.082961895
252	0x3d594599	0.05304489
253	0x3d101304	0.035174385
254	0x3de35ba1	0.11101461
255	0xbd260330	-0.040530384

transformer_encoder.layers.0.self_attn.in_proj_bias f4 [192]
0	0x3d97e087	0.07415872
1	0xbcac5435	-0.021036247
2	0x3d33f32e	0.043933086
3	0x3d1a2197	0.03762969
4	0xbbc00202	-0.0058596143
5	0xbcff572f	-0.031169502
6	0x3d6d6080	0.057953358
7	0x3ca0b069	0.019615369
8	0x3d324996	0.04352721
9	0x3d8d97b3	0.069137
10	0xbd72e681	-0.059301857
11	0x3c24eaed	0.010065776
12	0xbd968c47	-0.073509745
13	0xbcddeea2	-0.027091328
14	0xbc8c5f1f	-0.017135201
15	0x3c2566a1	0.010095269
16	0x3d543b64	0.05181445
17	0xbd0c0b58	-0.034190506
18	0xbd8129a5	-0.06306771
19	0x3d249fe8	0.04019156
20	0x3b0a9413	0.0021145388
21	0x3cb9e603	0.022692686
22	0x39f3d543	0.00046507464
23	0x3ccc6cac	0.024954163
24	0x3c9fc048	0.019500867
25	0xbddcec52	-0.10787262
26	0x3d806eb7	0.06271117
27	0xbd952abd	-0.07283542
28	0xbbe8eb5a	-0.007108134
29	0x3b689cfc	0.003549396
30	0x3b102a04	0.00219977
31	0x3daaf6b5	0.08347837
32	0x3d20ae37	0.039228644
33	0x3cc2e259	0.023789572
34	0x3b299cca	0.0025880807
35	0x3ccc09f0	0.024907082
36	0xbd517830	-0.05114001
37	0xbd452151	-0.048127476
38	0xbbca125f	-0.006166741
39	0xbd25420f	-0.0403462
40	0x3d90be8c	0.07067594
41	0xbd06835f	-0.03284013
42	0x3d32ded3	0.043669533
43	0x3ba6f27c	0.0050948244
44	0x3c84ac59	0.016195463
45	0xbd3b080f	-0.045661982
46	0xbdb6f301	-0.08933068
47	0xbd8f8a15	-0.07008759
48	0x3c36027b	0.01110899
49	0x3c163073	0.009166825
50	0xbddf4432	-0.10901679
51	0x3d7c60d2	0.061615773
52	0x3df3b37e	0.1189947
53	0xbb62861b	-0.0034564796
54	0xbe029623	-0.12752585
55	0x3d60d259	0.054888103
56	0xbc65be09	-0.014022359
57	0xbd064409	-0.032779727
58	0xbd003ee1	-0.031309966
59	0xb8c94b20	-9.59842e-05
60	0x3d462f14	0.04838474
61	0x3c0460ea	0.008079747
62	0xbcff2a68	-0.03114815
63	0xbccbdb88	-0.024884954
64	0xbd0654ed	-0.032795835
65	0x3c284d92	0.0102724
66	0xbc930fff	-0.017951963
67	0xbc7b6fdc	-0.015346494
68	0xbc27a546	-0.010232275
69	0xbcb75047	-0.022377146
70	0xbc217ffa	-0.009857172
71	0xbc2ab954	-0.010420162
72	0xbc7d9991	-0.015478508
73	0x3b9132cb	0.004431104
74	0xbbc12af2	-0.005895012
75	0x3ca8e0d6	0.020615023
76	0x3d2695d9	0.04067025
77	0xbd58ce64	-0.052931204
78	0x3b61ce9d	0.0034455427
79	0xbb80b7c9	-0.003928159
80	0x3cb3ceea	0.02194925
81	0xbc59a31b	-0.013283516
82	0xbcad7750	-0.021175057
83	0x3be3febf	0.0069578583
84	0xbc7fd553	-0.015614825
85	0x3c9454d0	0.018106848
86	0x3c9ce580	0.019152403
87	0x3c3d00f8	0.0115358755
88	0xba80d8b4	-0.0009830208
89	0x3c1a90ce	0.009433938
90	0xbb95a446	-0.004566702
91	0x3ba5c09a	0.0050583603
92	0x3b4cb75c	0.003123722
93	0x3a980c0e	0.0011600272
94	0xbb6f022a	-0.0036469796
95	0xbc1b94ae	-0.009495897
96	0x3d0df0c3	0.034653436
97	0xbc58f2fb	-0.013241525
98	0x3d0310c2	0.031998403
99	0x3c9114fa	0.017710198
100	0x3b460683	0.0030216284
101	0x3c9a04ca	0.018801112
102	0x3c6b9542	0.014378848
103	0xbba9a219	-0.0051767942
104	0xbc224a2c	-0.009905379
105	0x3ad44e1e	0.0016197597
106	0xbcbdf664	-0.023188777
107	0x3bc31fb9	0.0059547094
108	0xbc1675a0	-0.009183317
109	0xbbb7d46c	-0.0056100395
110	0x3c5e27e0	0.013559312
111	0x3ca2704d	0.01982894
112	0x3b90db3c	0.004420666
113	0xbc281675	-0.01025926
114	0x3cb996c2	0.022654895
115	0xbb8cfb0d	-0.0043023885
116	0xbc109ac5	-0.008825962
117	0x3a89bc6b	0.0010508423
118	0x3beef2a4	0.0072921086
119	0xba1720f3	-0.00057651027
120	0xbb3a21c8	-0.0028401483
121	0x3c851079	0.016243206
122	0x3c79e9dd	0.015253511
123	0x3c17ab73	0.009257185
124	0xbc81b90f	-0.015835313
125	0x3b979364	0.0046257246
126	0x3bc014d1	0.0058618565
127	0x3be9d616	0.0071361167
128	0x3bf248c9	0.0073939306
129	0x3ca72b78	0.02040647
130	0xbd01bf9f	-0.031676885
131	0xbcb0c3e1	-0.021577777
132	0x3b280d32	0.002564263
133	0x3c31378e	0.010816468
134	0x3c4a3655	0.012342055
135	0xbc21ad3c	-0.009867962
136	0x3c05fdc7	0.008178181
137	0x3b84e314	0.00405539
138	0x3ba9e00b	0.0051841787
139	0xbc82429b	-0.0159009
140	0x3aad28b2	0.0013210981
141	0x3c697f65	0.014251565
142	0xbc0e3070	-0.008678541
143	0x39698a80	0.00022272207
144	0xba9ad8db	-0.0011813896
145	0xbc375553	-0.0111897765
146	0x3c8c4dbe	0.017126914
147	0x3bd08e59	0.0063646254
148	0x3c0f72f2	0.008755432
149	0xbc58c447	-0.01323039
150	0x3b308a31	0.0026937837
151	0x3b1ee792	0.0024246913
152	0x3c58cbeb	0.013232212
153	0x3b2e1283	0.0026561327
154	0xba1ff797	-0.00061022624
155	0xba96fc98	-0.0011519371
156	0x3c93530a	0.017983932
157	0xbc26580d	-0.010152829
158	0xbc003ca3	-0.007826957
159	0x3b8d4057	0.0043106484
160	0xbc638b59	-0.013888204
161	0xbc9219e8	-0.017834619
162	0x3be17252	0.006880083
163	0xbc7d96e7	-0.015477872
164	0x3c951034	0.018196203
165	0x3c5fb7b7	0.013654641
166	0x3b7e996a	0.0038848766
167	0xbc3624a6	-0.011117136
168	0x3b8e7095	0.004346917
169	0x3c821be4	0.01588244
170	0xbbe18687	-0.006882492
171	0xbaaeda7d	-0.0013340261
172	0xbc1543ce	-0.009110404
173	0xbc2b4a53	-0.010454732
174	0x3c059f71	0.00815569
175	0x3a7b1efd	0.0009579508
176	0xbc18038b	-0.009278188
177	0x3c1be052	0.009513931
178	0x3ccf28df	0.025288044
179	0x3c5d9e08	0.013526447
180	0x3cf408ac	0.029789291
181	0xbc4fbb4c	-0.012678932
182	0xbbf22851	-0.00739006
183	0xbba4d603	-0.005030395
184	0x3c1e9fba	0.0096816365
185	0xbc36c491	-0.0111552635
186	0x3c799aeb	0.015234689
187	0x3c8300ac	0.015991531
188	0xbc1c4a02	-0.009539129
189	0xba9048d8	-0.0011008037
190	0x3a522e68	0.00080177793
191	0x3c34349f	0.010998874

transformer_encoder.layers.0.self_attn.out_proj.weight f4 [64, 64]
0	0xbde4047c	-0.11133668
1	0xbda7740b	-0.0817643
2	0x3c870432	0.016481493
3	0x3d3acd8f	0.045606192
4	0x3da35071	0.07974327
5	0xbccf9b6b	-0.025342664
6	0x3dce27ab	0.1006616
7	0xbdaf26fb	-0.08552357
8	0x3c90f170	0.017693251
9	0xbdcc27ee	-0.099685535
10	0x3d9e0994	0.07716671
11	0x3dd03e89	0.10168178
12	0xbdc31d16	-0.09527032
13	0x3da8f15f	0.08249163
14	0xbdaf120b	-0.08548363
15	0x3bed9abc	0.007251112
16	0x3d189876	0.037254773
17	0x3df8a548	0.121409
18	0xbe015b9e	-0.12632605
19	0xbd259d12	-0.040432997
20	0xbd5e862f	-0.054327186
21	0x3d5fb10a	0.054612197
22	0xbb3b8ce5	-0.0028617915
23	0x3c7e22df	0.015511244
24	0xbd5ee544	-0.054417863
25	0xbca32f4d	-0.019920016
26	0xbe12134e	-0.14265177
27	0x3c0e3626	0.008679902
28	0x3dced85a	0.100998595
29	0x3d3334ec	0.043751642
30	0xbbdc1b69	-0.0067171347
31	0x3c9c6edc	0.01909583
32	0xbd82b573	-0.06382265
33	0x3d22751a	0.039662458
34	0x3cfac5a8	0.030611828
35	0xbdf9cfe0	-0.12197852
36	0xbce12e05	-0.027487764
37	0xb959fb04	-0.00020788243
38	0xbdf57f5c	-0.119871825
39	0xbddd1611	-0.107952245
40	0xbbb9b8d1	-0.005667784
41	0x3d75ac2c	0.05997865
42	0x3d1bea6f	0.03806537
43	0x3d4a47b1	0.049384777
44	0x3cf40e3a	0.02979194
45	0xbd5dc108	-0.054139167
46	0xbd498460	-0.04919851
47	0x3d288697	0.04114398
48	0x3d327e6b	0.043577593
49	0x3d9d87b3	0.07691898
50	0xbc78af87	-0.015178568
51	0xbd9c8907	-0.076433234
52	0x3d4dcaa3	0.050242078
53	0xbd89d2de	-0.06729673
54	0x3e2ac41c	0.16676372
55	0x3da43d80	0.08019543
56	0xbe0d69ff	-0.13809966
57	0xbc7219a8	-0.014776625
58	0x3dac55af	0.0841478
59	0xbcfafca3	-0.030638045
60	0x3cb6932d	0.022286976
61	0x3d952529	0.07282478
62	0xbd8c1a74	-0.06840983
63	0xbcf3afbe	-0.029746886
64	0x3df843fb	0.12122341
65	0x3dbcf1d1	0.0922581
66	0x3e03781e	0.1283879
67	0x3cb401eb	0.02197357
68	0x3db1fe74	0.08691111
69	0xbc83c127	-0.016083313
70	0x3dbbb98f	0.09166252
71	0x3bbcd261	0.005762384
72	0xbdb5f831	-0.088852294
73	0x3e0cd4e0	0.1375308
74	0xbd5033ad	-0.050830532
75	0xbb620c1e	-0.0034492086
76	0x3ded44bd	0.115853764
77	0x3e10723f	0.14106081
78	0x3d9c5a3e	0.076344
79	0x3daae3da	0.083442405
80	0xbd0b6283	-0.034029495
81	0xbd992913	-0.074785374
82	0xbd462c24	-0.04838194
83	0x3c80cf5c	0.015723877
84	0x3cff9b13	0.031201875
85	0x3dd8d155	0.10586802
86	0x3c7651ac	0.0150341205
87	0xbd9f9918	-0.07792872
88	0x3c4ec26f	0.012619599
89	0x3ceb7739	0.028743373
90	0x3dadfb36	0.0849518
91	0x3cba224f	0.022721438
92	0x3d185ba5	0.037196774
93	0xbd4f6831	-0.050636474
94	0x3d912ecf	0.07089006
95	0x3d9a0b8a	0.07521732
96	0xbcd656ed	-0.026164496
97	0x3cc1f853	0.02367798
98	0x3d90b302	0.07065393
99	0xbc1c4efc	-0.009540316
100	0x3e40969e	0.18807456
101	0x3d871f51	0.0659777
102	0x3e94c762	0.29058367
103	0x3e2e130b	0.16999452
104	0x3d8f21d6	0.069888756
105	0xbd34d39e	-0.044147126
106	0xbd03d2f8	-0.032183617
107	0xbe2948a4	-0.16531616
108	0x3dbdb654	0.09263292
109	0x3ad87cec	0.0016516722
110	0xbb542989	-0.003237339
111	0xbd82219e	-0.06354068
112	0xbd19f1c0	-0.037584066
113	0x3cf537b8	0.029933795
114	0xbe1c5465	-0.15266569
115	0xbdf5e9f5	-0.120075144
116	0x3d90fee4	0.070798665
117	0x3d3568f2	0.044289537
118	0xbd80ae8d	-0.06283293
119	0xbd71d2bf	-0.059038874
120	0xbdafd41a	-0.08585377
121	0x3de3dfd9	0.1112668
122	0x3dbd2ace	0.0923668
123	0xbc454e59	-0.012042605
124	0x3e29a5b6	0.1656712
125	0x3dd94f0e	0.106107816
126	0xbd861594	-0.065470845
127	0xbd0e870c	-0.03479676
128	0x3d36ac6c	0.044598028
129	0x3de7bae6	0.11314945
130	0xbbc695dc	-0.006060345
131	0x3db8ecad	0.09029517
132	0xbd85ac74	-0.065270334
133	0xbda1fc8d	-0.07909498
134	0xbcc2c34a	-0.023774762
135	0xbd3f5197	-0.04670867
136	0xbd93c5ff	-0.07215499
137	0x3e020894	0.12698585
138	0xbc15b800	-0.009138107
139	0x3cf7ffcf	0.030273346
140	0x3d274198	0.04083404
141	0x3dbd087a	0.092301324
142	0x3c23d179	0.009998673
143	0xbab8756a	-0.0014073078
144	0xbc7c9c68	-0.0154181495
145	0xb88066d1	-6.122667e-05
146	0xbdbe67c6	-0.09297137
147	0x3d94bcf0	0.072625995
148	0xbd3aa1e1	-0.045564536
149	0xbc46eb2d	-0.012141031
150	0x3e229c59	0.15879954
151	0xbcf20922	-0.02954537
152	0x3db36994	0.08760372
153	0x3bdcb4ce	0.006735421
154	0xbda109b6	-0.0786318
155	0xbdac0802	-0.08399965
156	0xbd1d6a54	-0.03843148
157	0x3d70a14f	0.058747586
158	0xbd9ace61	-0.07558895
159	0x3d527f7d	0.051391114
160	0x3d4e1741	0.050315145
161	0x3bd8af8f	0.006612725
162	0xbd91a463	-0.071114324
163	0xbd8d49be	-0.06898831
164	0x3c8ad690	0.016948014
165	0xbd6b7617	-0.057485666
166	0x3d6c16af	0.05763882
167	0x3e0b065b	0.13576643
168	0x3dc08772	0.09400834
169	0x3d32fc2a	0.043697514
170	0x3d4a9c6a	0.049465574
171	0xbd1fa91f	-0.038979646
172	0xbd06b2a4	-0.03288521
173	0x3dfb92cd	0.122838594
174	0x3d152eb3	0.03642149
175	0xbc30a93f	-0.010782539
176	0x3c1c0a1e	0.0095238965
177	0xbddf1011	-0.10891736
178	0xbdc2c77a	-0.095107034
179	0x3d44722e	0.047960453
180	0x3bfb29ad	0.0076648802
181	0xbdc826bf	-0.09773015
182	0x3db369c0	0.087604046
183	0x3d8ca498	0.06867331
184	0xbc91c284	-0.017792948
185	0xbdfe8909	-0.12428481
186	0xbc09576d	-0.00838266
187	0xbcc86136	-0.024460416
188	0xbdce1e15	-0.100643314
189	0x3c478a3d	0.012178955
190	0xbc15e010	-0.009147659
191	0x3dfc1ee0	0.123105764
192	0x3d9d46c3	0.07679512
193	0xbdabd849	-0.083908625
194	0x3ccb5862	0.024822418
195	0xbdcd09c4	-0.10011628
196	0x3da7df4d	0.08196888
197	0xbd3cdf38	-0.046111315
198	0x3ca6998d	0.02033689
199	0x3d743001	0.059616093
200	0x3da11975	0.07866184
201	0x3d482c94	0.048870638
202	0xbdaef09e	-0.08541988
203	0xbdc7d224	-0.09756878
204	0x3cb3000f	0.021850614
205	0xbdcb66cf	-0.099317186
206	0x3e2dac19	0.16960181
207	0x3de8cb83	0.11366942
208	0xbd25652a	-0.04037968
209	0x3cf03a4e	0.029324677
210	0x3d9fa6bb	0.07795473
211	0xbdd48454	-0.10376802
212	0xbdeb7bae	-0.114981994
213	0x3e04a1be	0.12952325
214	0x3e55675a	0.20840207
215	0xbc631c42	-0.013861718
216	0xbcd69d73	-0.026198125
217	0xbdb0175d	-0.08598206
218	0x3d9e507f	0.07730197
219	0x3c347a1d	0.011015442
220	0x3d29de0b	0.041471522
221	0xbdd3b442	-0.10337116
222	0xbdb97a7d	-0.09056566
223	0x3cc6af19	0.024253415
224	0xbbdc747f	-0.0067277546
225	0xbd716ee0	-0.05894363
226	0x3acd9961	0.0015685969
227	0xbdf4b95e	-0.119494185
228	0xbdc6fddd	-0.09716389
229	0x3e10090d	0.14065953
230	0x3dc57aff	0.096426
231	0x3bbb80fc	0.0057221632
232	0x3d4b9edb	0.049712043
233	0x3d8c2bb7	0.068442754
234	0x3d081827	0.03322616
235	0xbe271cfd	-0.16319652
236	0xbdac77be	-0.084212765
237	0x3deb1109	0.114778586
238	0xbda6dd45	-0.081476726
239	0xbdea36d4	-0.11436239
240	0xbd81056e	-0.06299864
241	0xbe07d12e	-0.1326339
242	0x3ddc0d8c	0.10744771
243	0xbd185e77	-0.037199464
244	0x3dd768b3	0.10518017
245	0xbd3bfe4c	-0.045896813
246	0xbdc4d08f	-0.09610092
247	0xbe0201e1	-0.12696029
248	0xbd019739	-0.031638358
249	0x3ce1b95d	0.027554208
250	0x3d49966c	0.04921572
251	0xbcbbd95e	-0.022930797
252	0x3d20b7e9	0.03923789
253	0x3d67f4c1	0.0566299
254	0xbc77ade9	-0.015117147
255	0x3d77b94b	0.060479444

transformer_encoder.layers.0.self_attn.out_proj.bias f4 [64]
0	0xbb5cb140	-0.0033674985
1	0x3c0af061	0.008480162
2	0xbca3e002	-0.020004276
3	0x3b7b3f3e	0.0038337256
4	0xba84cd94	-0.0010132068
5	0xbacbc380	-0.0015545934
6	0xbbcc4576	-0.0062338663
7	0x3c6630af	0.014049693
8	0xbc04fae7	-0.00811646
9	0xbc137e2e	-0.009002252
10	0x3c7a49d4	0.015276391
11	0xbba3dc15	-0.005000601
12	0xbb12c5ec	-0.0022395803
13	0x3c1b6c7b	0.009486313
14	0xbc76c899	-0.015062475
15	0xbca72ff4	-0.020408608
16	0xbba97108	-0.005170945
17	0x3b93f49f	0.004515245
18	0x3bcc0ebc	0.0062273424
19	0x3a5cb310	0.00084190164
20	0x3cbf97dc	0.023387842
21	0xbc84f514	-0.016230144
22	0xbb57bb34	-0.0032917978
23	0x3bfe7053	0.007764855
24	0x3c800282	0.015626196
25	0x3c19744a	0.009366104
26	0x3ba8c0b7	0.0051499265
27	0x3ce82f65	0.028342912
28	0xba51aa67	-0.0007998109
29	0xbc2d00c6	-0.010559266
30	0x3bff6b10	0.0077947453
31	0xb99ef10b	-0.000303157
32	0xbc074f6a	-0.00825868
33	0xbcc42fa1	-0.023948492
34	0xbc0a41fb	-0.0084385825
35	0xbb090ace	-0.002091098
36	0xbbd76962	-0.006573842
37	0x3b2fe111	0.002683703
38	0x3b11bfbb	0.0022239524
39	0x3bc5fec9	0.0060423356
40	0x3a9535a1	0.001138378
41	0xb9881ab2	-0.0002595983
42	0x3c31654b	0.010827373
43	0x3b78df6b	0.0037974964
44	0x387c2b47	6.0121787e-05
45	0x3b87644a	0.0041318284
46	0xbccd8bcd	-0.025091076
47	0x3d03f300	0.032214165
48	0xba6e0f00	-0.00090812147
49	0xbbc0fea6	-0.0058897315
50	0xbc140260	-0.009033769
51	0x3b40fea7	0.002944866
52	0x3b9c5059	0.0047703204
53	0x39fc68df	0.0004814332
54	0x3a4e6c41	0.00078744075
55	0x3bf0eed9	0.0073526916
56	0xbc11288a	-0.008859763
57	0x3bd22f80	0.006414354
58	0xbb771081	-0.0037699046
59	0x3be7e240	0.0070765316
60	0x3be4a9f9	0.00697827
61	0xbbcee750	-0.0063141957
62	0x3bf82e2c	0.0075738635
63	0x3c9ff1bd	0.01952445

transformer_encoder.layers.0.linear1.weight f4 [128, 64]
0	0x3d1fd646	0.039022706
1	0x3dbf293a	0.09334035
2	0xbde64ca8	-0.1124509
3	0xbdcd7fc3	-0.10034134
4	0x3e1c8ab7	0.1528729
5	0x3ddd4753	0.1080462
6	0x3de914d1	0.113809235
7	0x3d4ac284	0.04950191
8	0xbdb11797	-0.086470775
9	0x3b6a7312	0.0035774154
10	0xbdc8a92a	-0.097978905
11	0xbd99b7e6	-0.07505779
12	0xbdee571e	-0.1163771
13	0xbe206cde	-0.1566653
14	0x3da50616	0.080578014
15	0xbd7aacec	-0.061200067
16	0xbe10deaf	-0.14147447
17	0x3e03df0e	0.12878057
18	0x3ccd20b6	0.025040012
19	0xbc9f8fdc	-0.019477777
20	0x3dfe66f2	0.12421979
21	0xbd38f441	-0.045154814
22	0x3dad1016	0.08450334
23	0x3ce1d25a	0.027566124
24	0x3e04ec85	0.1298085
25	0xbd43a55f	-0.047765132
26	0xbd0d2792	-0.034461565
27	0x3c96f21f	0.018426
28	0xbd6c5b31	-0.057704154
29	0x3db9f199	0.09079284
30	0x3d8d2116	0.06891076
31	0xbd9498ee	-0.072557315
32	0xbe1688bd	-0.14700599
33	0xbdc07745	-0.09397749
34	0xbcfe791a	-0.031063605
35	0xbe0ca847	-0.13736068
36	0x3d886e66	0.06661682
37	0xbc94ad88	-0.018149152
38	0x3e321e11	0.17394282
39	0xbd30c8f2	-0.043160386
40	0x3d488e04	0.04896356
41	0xbbfa3de0	-0.0076367706
42	0x3e3a9d97	0.18224178
43	0x3ba0c142	0.0049058506
44	0x3d9cbad8	0.07652825
45	0x3d7a3037	0.061081138
46	0xbdc69419	-0.09696216
47	0xbd9f9e5c	-0.077938765
48	0xbdbf5b2c	-0.093435615
49	0x3e001667	0.12508546
50	0xbdbde826	-0.092727944
51	0x3d922f94	0.07137981
52	0x3df6cb73	0.120505236
53	0xbe2f7c99	-0.17137374
54	0xbdcb7326	-0.09934072
55	0xbd97e952	-0.07417549
56	0xbcbba01a	-0.02290349
57	0xbdbbd78e	-0.09171973
58	0xbdc810fa	-0.09768863
59	0x3d84e068	0.064881146
60	0xbe27c215	-0.1638263
61	0xbdfbdacc	-0.122975916
62	0x3e00e81f	0.12588547
63	0x3dbe941e	0.09305595
64	0xbdbe950f	-0.093057744
65	0xbdb9612e	-0.09051739
66	0xbdb1cbfc	-0.08681485
67	0xbe3c2236	-0.18372425
68	0x3d6d1969	0.05788556
69	0xbc8d4b4e	-0.017247822
70	0xbd718883	-0.05896808
71	0x3d6a4737	0.057196822
72	0x3d9f0aa4	0.077657014
73	0x3a8f06f3	0.0010912105
74	0x3daf6243	0.08563664
75	0xbd64a775	-0.055823762
76	0x3c51c00f	0.012802138
77	0xbcc18311	-0.023622068
78	0x3dc558e1	0.09636093
79	0xbcfda9a0	-0.030964673
80	0x3d9fdb69	0.07805521
81	0x3bb254c8	0.0054422356
82	0xbdadbf51	-0.08483756
83	0x3e55269a	0.20815507
84	0xbd7093aa	-0.058734573
85	0x3d47cb8e	0.04877811
86	0x3bed122e	0.007234833
87	0x3da0c1d5	0.078494705
88	0xbd458e78	-0.048231572
89	0x3de3f0f7	0.11129945
90	0x3d00dbb1	0.031459514
91	0xbd7425bf	-0.05960631
92	0xbd9e6ef5	-0.07736007
93	0xbd959b2c	-0.07304987
94	0x3d11e561	0.035619143
95	0xbdb3ac37	-0.08773082
96	0x3cccc472	0.024996016
97	0x3e030c29	0.12797607
98	0x3d0ad88b	0.033897918
99	0x3dbd8ba3	0.09255149
100	0x3de2c260	0.1107223
101	0x3db59488	0.08866221
102	0x3d7d09da	0.061776973
103	0xbdcefff7	-0.10107415
104	0xbd9e73d1	-0.07736934
105	0xbd76a570	-0.060216367
106	0x3bcdc6d4	0.0062798057
107	0xbdc66277	-0.096867494
108	0xbdba015a	-0.09082289
109	0xbda96028	-0.082702935
110	0x3e2174ae	0.15767166
111	0xbdd4656a	-0.10370906
112	0x3d0fc894	0.035103396
113	0x3bff51cf	0.0077917348
114	0x3ddd7cc2	0.10814811
115	0xbd20ebd0	-0.03928739
116	0x3e087bbc	0.13328451
117	0x3dd2a030	0.102844596
118	0xbc9bcb72	-0.019017909
119	0xbd9f6ecf	-0.07784807
120	0xbd86afa3	-0.06576469
121	0xbd16a0fa	-0.036774613
122	0x3cdc18d6	0.026867311
123	0x3d20c3c8	0.03924921
124	0x3dbb0511	0.09131826
125	0x3ca70a1d	0.020390565
126	0xbdc0957f	-0.09403514
127	0x3c3a10a8	0.01135651
128	0x3e79b82e	0.24386665
129	0xbd2a2bdb	-0.04154573
130	0xbc53194e	-0.012884451
131	0xbd03b61a	-0.032156087
132	0x3d5ee082	0.054413326
133	0xbded246c	-0.115792125
134	0xbdb7e9aa	-0.08980115
135	0x3ce0f545	0.027460704
136	0x3e012a18	0.12613714
137	0xbde25924	-0.110521585
138	0x3d971051	0.07376159
139	0x3d3ca5de	0.04605662
140	0x3d842219	0.06451816
141	0x3dd4b95f	0.10386919
142	0xbdf50555	-0.11963908
143	0xbb205282	-0.002446324
144	0xbd305dc1	-0.04305816
145	0xbd493de8	-0.049131304
146	0xbdb70f87	-0.089385085
147	0x3ccce10a	0.02500965
148	0x3d3cc961	0.046090487
149	0x3e06b8be	0.13156411
150	0x3d81e3bd	0.06342266
151	0x3d45f980	0.048333645
152	0xbdf872d2	-0.12131275
153	0x3d8390ae	0.0642408
154	0xbddf5551	-0.10904945
155	0xbd905919	-0.07048244
156	0xbca3c195	-0.019989768
157	0xbd7b715d	-0.06138741
158	0xbd14e20a	-0.03634838
159	0xbd9247d0	-0.071426034
160	0xbceb138a	-0.02869584
161	0xbe0b5e5a	-0.13610211
162	0x3e1b83b7	0.15186964
163	0xbda97a0d	-0.082752325
164	0x3d64f686	0.055899166
165	0xbdb3e7d6	-0.087844536
166	0xbd5f3dfd	-0.054502476
167	0x3c976312	0.018479858
168	0x3c67117d	0.014103291
169	0xbd32a8f5	-0.04361816
170	0x3d01f446	0.031727098
171	0x3d152d39	0.03642008
172	0xbd6d293d	-0.057900656
173	0x3de17de0	0.11010337
174	0x3d39cdc0	0.045362234
175	0x3cfaa8b3	0.03059802
176	0x3dc36ac3	0.095418476
177	0xbdfb80ca	-0.12280424
178	0x3e009a09	0.1255876
179	0xbdec259e	-0.115306124
180	0xbd94a657	-0.07258289
181	0xbcfe3cfe	-0.031034943
182	0xbd240a2e	-0.04004877
183	0xbd83b576	-0.06431095
184	0xbe071c00	-0.13194275
185	0xbde4fe71	-0.11181343
186	0x3d358bf1	0.04432291
187	0x3dc688b8	0.09694046
188	0x3d92dbdd	0.07170842
189	0x3d6640e1	0.056214217
190	0x3c239985	0.009985332
191	0xbd8917bb	-0.06693979
192	0x3d1dd8d0	0.038536847
193	0xbc95c0de	-0.018280443
194	0xbdb878a4	-0.090073854
195	0xbdd7d6f2	-0.105390444
196	0xbdba42dd	-0.090947844
197	0xbde5bae8	-0.1121729
198	0xbd8f1f9b	-0.0698845
199	0x3dcf241f	0.101143114
200	0xbd3c4521	-0.045964364
201	0xbd44c129	-0.048035774
202	0x3e0635ce	0.13106462
203	0x3d5ecf5a	0.054396965
204	0x3d381e02	0.044950493
205	0xbd5cd88c	-0.053917453
206	0x3d9eee81	0.07760335
207	0xbe03445c	-0.12819046
208	0x3dc8db8d	0.09807501
209	0xbdca526f	-0.09879004
210	0xbdb60c98	-0.08889121
211	0x3d92ab10	0.07161534
212	0x3dbb32e0	0.09140563
213	0xbdca07e3	-0.098647855
214	0xbd8b5f93	-0.06805339
215	0x3d058e41	0.032606367
216	0x3dc082d0	0.093999505
217	0xbdc29b96	-0.09502332
218	0x3dc50917	0.096208744
219	0xbddd772c	-0.10813746
220	0x3d4c002f	0.049804863
221	0x3d287e3c	0.04113601
222	0x3d8e7839	0.069565244
223	0x3db9c903	0.09071543
224	0x3d8427f8	0.06452936
225	0xbe2c0790	-0.1679976
226	0xbd61e400	-0.05514908
227	0xbd48ddac	-0.049039528
228	0x3d8d4f9f	0.06899952
229	0xbdc22d74	-0.09481326
230	0xbd9c21b7	-0.07623618
231	0xbbb179fe	-0.005416154
232	0x3e022e15	0.12712891
233	0x3c3cce5b	0.011523808
234	0x3de21db4	0.11040822
235	0xbe00dee7	-0.1258503
236	0x3d48aecd	0.048994828
237	0xbd8cdcf8	-0.06878084
238	0x3de47113	0.1115438
239	0x3d410e1c	0.047132596
240	0x3cc91589	0.024546402
241	0xbd7ceb6f	-0.061747964
242	0x3d8ee0e6	0.0697649
243	0x3db71905	0.08940319
244	0xbd505195	-0.050859053
245	0xbd1fbf59	-0.039000843
246	0xbd48eb70	-0.049052656
247	0xbd86cf48	-0.065825045
248	0xbe2bb74b	-0.1676914
249	0x3cb2985b	0.021801164
250	0xbdd3eced	-0.103479244
251	0x3e136a1f	0.1439595
252	0x3dea84c3	0.114511035
253	0x3df9935b	0.12186309
254	0x3ca6f43a	0.020380128
255	0xbddf5375	-0.1090459

transformer_encoder.layers.0.linear1.bias f4 [128]
0	0x3ada418a	0.0016651612
1	0x3cbb7fd2	0.022888098
2	0x3d675767	0.056479838
3	0x3dd08c32	0.1018299
4	0x3b30888c	0.0026936857
5	0x3d9a8b37	0.075460844
6	0x3de64e94	0.11245456
7	0x3d8282a4	0.06372574
8	0x3c5316fa	0.012883896
9	0xbdd33220	-0.10312295
10	0x3d9fd2c6	0.07803874
11	0xbb339a78	-0.0027405303
12	0x3cdf8bac	0.02728828
13	0xbc3ca67d	-0.011514303
14	0x3d797529	0.06090275
15	0xbd067fe5	-0.032836813
16	0xbd6db7dc	-0.05803667
17	0x3ce3bcf2	0.027800057
18	0xbc6c94b0	-0.014439747
19	0x3cdeb72d	0.027186954
20	0xbddc8460	-0.10767436
21	0xbdeb468e	-0.114880666
22	0x3cd541e9	0.026032405
23	0xbe000d86	-0.12505159
24	0x3d2aa8b1	0.041664783
25	0x3d5f433c	0.05450748
26	0xbd1418a6	-0.03615632
27	0xbd619644	-0.055074945
28	0x3d8b4210	0.0679971
29	0x3d88229e	0.06647228
30	0xbd946681	-0.072461136
31	0x3dbfc6c2	0.09364082
32	0xbe01338c	-0.1261732
33	0xbd11ba3f	-0.03557801
34	0xbce90a40	-0.02844727
35	0xbde04de8	-0.109523594
36	0x3d1f07f9	0.038825963
37	0xbd2300d1	-0.0397957
38	0x3d22c7ec	0.03974144
39	0x3d3cc2dc	0.04608427
40	0x3d7df76e	0.062003545
41	0x3da54f69	0.08071787
42	0xbdd5b4eb	-0.10434898
43	0xbd9912f2	-0.07474317
44	0xbd151fda	-0.03640733
45	0x3dc08b41	0.094015606
46	0x3d36ba01	0.04461098
47	0x3cd879e7	0.026425315
48	0x3cf1da10	0.029522926
49	0x3cfff596	0.031245034
50	0xbd9ec903	-0.07753184
51	0x3cb582b2	0.022157047
52	0xbc883629	-0.016627388
53	0x3c0bfabb	0.0085436655
54	0xbdc69e13	-0.09698119
55	0xbd0a349f	-0.03374159
56	0x3d867f92	0.06567301
57	0x3d776a18	0.060403913
58	0x3d879c14	0.066215664
59	0xbdb66cf6	-0.089075014
60	0xbd575358	-0.052569717
61	0x3de7bc5a	0.11315222
62	0x3a783514	0.00094683585
63	0x3d3bcda2	0.045850404
64	0xbd93f154	-0.07223764
65	0xbd9e2084	-0.077210456
66	0xbe13cfeb	-0.14434783
67	0x3dc9602b	0.09832796
68	0x3d63ca35	0.05561276
69	0xbd9485b0	-0.07252061
70	0xbdeba04d	-0.11505184
71	0xbd3d458f	-0.046208914
72	0xbc9ddb42	-0.01926959
73	0x3dc9bf8b	0.09850987
74	0x3d773827	0.060356285
75	0x3c96c1a0	0.018402874
76	0x3dbadfa7	0.091246895
77	0xbdb9d837	-0.09074443
78	0x3c9d090d	0.019169355
79	0x3dd1bee9	0.10241491
80	0x3d23a131	0.039948646
81	0xbd2c780b	-0.04210667
82	0x3dc0b038	0.09408611
83	0xbc75c20c	-0.014999878
84	0xbd3a3124	-0.04545702
85	0x3d954e5b	0.07290336
86	0x3d4d6561	0.05014551
87	0x3d321cdd	0.043484557
88	0xbdea780c	-0.114486784
89	0x3d1b3d20	0.03790009
90	0xbd8d4237	-0.06897395
91	0xbd767fd5	-0.060180504
92	0x3cc1c689	0.02365424
93	0xbdbbb2de	-0.091649756
94	0xbb2118f0	-0.0024581514
95	0xbdb6a253	-0.0891768
96	0xbd544e44	-0.051832452
97	0x3d47b0b0	0.048752487
98	0xbdca714a	-0.098848894
99	0xbd3fe675	-0.04685064
100	0xbdacad11	-0.08431447
101	0xbd92cb35	-0.07167665
102	0xbe10752d	-0.14107199
103	0xbb59f3ec	-0.003325696
104	0x3dec8f45	0.11550764
105	0x3c470755	0.012147744
106	0xbd1f19bf	-0.038842913
107	0x3de3313f	0.11093377
108	0x3d797005	0.060897846
109	0x3d3fe5c1	0.04684997
110	0xbdc6d525	-0.09708623
111	0x3d819bc4	0.06328538
112	0xbda5277a	-0.0806417
113	0xbd73bf25	-0.05950846
114	0x3d87d89f	0.06633114
115	0x3d9af7be	0.07566784
116	0xbcbc538c	-0.022989057
117	0xbb338c27	-0.002739677
118	0x3dd0757a	0.10178657
119	0x3ba641ce	0.0050737625
120	0x3dfe07e3	0.12403848
121	0xbdb58b87	-0.08864503
122	0x3c7c7c9f	0.015410571
123	0xbd2d9d88	-0.04238656
124	0xbd5cefaf	-0.053939518
125	0xbcb22c96	-0.021749776
126	0xbd6afe21	-0.057371262
127	0x3cfe0382	0.031007532
